shogi_simple/log/tic_tac_toe/dqn/policy.pth (torch, 751721 bytes, 20 tensors)

model.model.model.0.weight f4 [128, 216]
000000 95 e6 44 3d 41 2b 4f 3d 25 de a3 bc 27 f4 c8 3b
       0.048071463 0.05057836 -0.020003388 0.006132621
000010 ab d0 d3 3c 2b 9b 1d bd 8b b8 43 3d 34 93 51 bc
       0.025856337 -0.038478058 0.047783416 -0.012791444
000020 f0 51 35 bc 59 d9 2b bd 92 91 a7 3d f9 3d 5c 3b
       -0.011066899 -0.041955326 0.08182062 0.0033606275
000030 28 6a 0c 3c 9f ae a0 3c 33 68 e4 bc 35 9f bc bc
       0.0085702315 0.019614516 -0.027881717 -0.023025135
000040 71 72 41 bd 73 28 00 3d aa cf 6d bc 23 39 f7 bc
       -0.04722828 0.031288575 -0.014514843 -0.030178612
000050 b6 2d 79 bc 66 95 3a 3c 99 fa 3a bd 09 81 31 3d
       -0.015208652 0.011388158 -0.045649145 0.04333595
000060 dd 01 ef bc c3 e4 b8 bc 3f 4a 96 3d f9 e2 b9 bc
       -0.029175693 -0.02257002 0.0733838 -0.022691237
000070 a3 58 8a 3d 57 7c 8f 3d 39 ff af 3d 2c 58 40 3c
       0.06755187 0.07006138 0.08593602 0.011739772
000080 31 64 20 3d 0f 16 59 3d 2e 9c 04 bc 8d fa 56 3d
       0.03915805 0.052999552 -0.008093877 0.052485038
000090 d7 ef 62 3d 4c 55 8b bd d9 3f 7d 3d 39 62 ed bb
       0.05540451 -0.068033785 0.061828468 -0.007244375
0000a0 e4 7e 1e 3c 15 24 33 bd 5c 8d 80 bd 4f 9d db 3c
       0.009673808 -0.043735582 -0.06276962 0.026808409
0000b0 49 23 76 3d 1d 61 e9 bc 2f 2e ba bc 86 60 8b bd
       0.060092244 -0.02848869 -0.0227271 -0.0680552
0000c0 5d a0 74 bd 1b 4d 24 bd 5d ce d4 bc 4b a9 3e 3d
       -0.059723247 -0.040112596 -0.025977308 0.04654817
0000d0 57 ea 79 bd d8 ba 89 bc 35 09 49 bd 99 a5 48 bd
       -0.0610145 -0.016812727 -0.049081046 -0.04898605
0000e0 a3 b1 41 3c 82 79 81 bd d3 99 0c bd 8b a1 0e bd
       0.011822137 -0.06322004 -0.034326386 -0.034822028
0000f0 f4 fd a7 3d 75 a5 e8 3c 79 2d 3d ba 69 5e 10 3d
       0.082027346 0.028399209 -0.0007216554 0.035246287
000100 f3 e6 96 bc 66 68 2e 3d c8 94 57 bc 4d da 12 3d
       -0.018420672 0.04258003 -0.013158031 0.03585272
000110 9e dc 36 3d 74 fa 98 3d fa e4 8c 3d 32 fd 32 3d
       0.04464399 0.07469645 0.06879611 0.043698497
000120 98 5c 89 3d f1 9c 2a 3d 3f a3 99 3d 5e 1a 2e 3d
       0.06707114 0.041653577 0.0750184 0.042505614
000130 8b 35 fc bc f6 ee 15 bd 3e b5 1c 3d 2e 39 31 bc
       -0.03078725 -0.036604844 0.038258784 -0.010816855
000140 4b 77 c5 bc 15 f4 a3 3d 28 87 25 3d 59 44 a9 3d
       -0.024104735 0.08005539 0.0404121 0.082649894
000150 20 a2 3a bb 65 92 59 bd 29 fc 83 bd d6 92 f3 bc
       -0.0028477982 -0.05311813 -0.0644458 -0.029733103
000160 09 c8 5b bc a8 38 11 bd 72 a6 9f 3c 5f 4f 24 3d
       -0.013414391 -0.035454422 0.019488547 0.040114757
000170 67 3f 81 bd 2d 4b bf bc 83 c3 10 3d d9 3c 82 bc
       -0.06310921 -0.023351276 0.035342705 -0.015898155
000180 cb 39 33 bd 56 19 bd bc f4 9d 14 bd 12 bd 69 bc
       -0.043756288 -0.02308337 -0.03628345 -0.014266269
000190 c0 e9 6e bd 1d 58 15 bd 02 ed 52 bc 58 5a 0d 3d
       -0.05832839 -0.036460984 -0.01287389 0.034509987
0001a0 a4 d6 1a 3c 65 9d 95 bd 23 40 52 3c b4 b0 20 3d
       0.009450588 -0.07305411 0.012832674 0.039231017
0001b0 f6 6e b7 bd f4 b1 c2 bc cd 9d 08 bc b4 4e a7 bc
       -0.08956711 -0.023766495 -0.008338404 -0.02042327
0001c0 d8 8d 36 3d 46 6f 54 3d d8 fd 6e 3d 40 6c 1c bb
       0.044568866 0.05186393 0.058347553 -0.0023868233
0001d0 48 97 44 bc 40 b9 73 3c a0 7e 58 3d a8 d4 d1 3c
       -0.011998959 0.01487571 0.052855134 0.025614098
0001e0 66 ba 5c bd f8 c4 f2 bc 32 07 ec 3a 8b 53 5f 3c
       -0.0538887 -0.029634938 0.0018007515 0.013630758
0001f0 12 b1 9e 3d 1a d4 2b 3c 51 bc 88 bd a1 3b 71 bd
       0.07748617 0.010487581 -0.066765435 -0.058894757
000200 1b 32 31 bd 9c e3 1c bc 34 76 8a bc 13 b5 c2 3d
       -0.043260675 -0.009575751 -0.016902067 0.095071934
000210 0a 8a 86 3d e0 65 29 bd 42 7c 83 3d b4 01 a4 bc
       0.065692976 -0.04135692 0.06420185 -0.020020343
000220 20 76 d3 3c f7 09 0a 3d d3 e9 07 3b 34 00 25 bd
       0.025813162 0.03370091 0.0020738735 -0.040283397
000230 53 8a 08 3b c2 ab 81 3d 81 8a 4f 3d b0 1d c6 3b
       0.00208344 0.06331588 0.050669197 0.0060460195
000240 af 1c 53 3d da e6 93 bd 70 72 69 3c 14 06 d5 bc
       0.051541027 -0.07221766 0.014248475 -0.026003875
000250 22 a2 c6 bc e2 87 a0 bd 6f a8 74 3d ed 2b ab bd
       -0.024247233 -0.078384176 0.059730943 -0.083579876
000260 b2 07 3a bd 92 fc 86 3d c4 35 70 3d a9 c0 7d 3d
       -0.045417495 0.06591143 0.058645025 0.061951313
000270 53 b9 0a bd 11 55 53 bd 38 46 bc 3b 07 df da bc
       -0.033868145 -0.051594798 0.0057456754 -0.026717676
000280 60 49 32 bd fd ff 0b 3d 09 6a 84 bb 31 0e 5e bd
       -0.043527007 0.034179676 -0.0040409607 -0.054212753
000290 6b 46 c5 3d 84 53 6a 3d f4 5d 38 3d 60 4d 35 bd
       0.09632572 0.057208553 0.045011476 -0.044263244
0002a0 20 f3 9a bc 94 8b b7 bc 98 f0 c2 3c 4c 0e 7b bc
       -0.01891476 -0.022405423 0.023796365 -0.015323233
0002b0 3a bf e2 bc 58 d1 65 bd f4 61 a2 bc 35 dd 5c bd
       -0.027679075 -0.05610785 -0.019822098 -0.053921897
0002c0 27 d5 d2 bc 7f b6 a4 3b 98 28 10 bd d0 19 d2 bc
       -0.025736405 0.005026638 -0.035194963 -0.025647074
0002d0 56 b0 00 bc 09 45 f4 bd 18 7f 5c bd 16 ed 2b bc
       -0.007854542 -0.1192723 -0.053832144 -0.010493537
0002e0 4d dc e1 bc 09 18 7f bd 2b 36 36 bd 63 43 ae bc
       -0.027570868 -0.06227878 -0.044485252 -0.021272367
0002f0 3d b4 56 bc 8c 84 74 3d 84 f1 05 3d bd 3c 11 bd
       -0.013104496 0.05969672 0.03270103 -0.035458315
000300 de c2 e4 bc 5b ef f7 bc 15 b5 7b 3d 31 bd 83 3c
       -0.027924951 -0.0302655 0.06145199 0.016081424
000310 db 90 72 3d 8b 2e 30 ba 24 b3 34 3d ee 50 32 bc
       0.059220176 -0.00067208026 0.044116154 -0.010883553
000320 4f 30 ad 3d a4 18 87 bd 7a ff 2f bd 96 65 76 bc
       0.0845648 -0.06596497 -0.04296825 -0.015038868
000330 da bc a4 bd 3d e4 67 3c 2f 76 1c bd 80 0b a8 3d
       -0.08043833 0.014153537 -0.038198646 0.082053185
000340 f7 f9 89 3d dd 18 d0 bc 3b 8b 85 3d 0b 47 f2 bd
       0.0673713 -0.02540248 0.06520697 -0.118299566
000350 df da 74 bd 95 f5 a7 bc e1 70 c4 bd 25 a6 37 bb
       -0.059779044 -0.020502845 -0.095918424 -0.0028022614
000360 9f bc 15 bb c0 3a b4 3c d4 32 89 3c 6c d8 5b 3d
       -0.0022848023 0.02200067 0.01674787 0.053673193
000370 9b 6d 0f bd b2 3a de 3b b4 17 14 bc 0e d7 30 3d
       -0.035016637 0.0067818994 -0.009038854 0.043173842
000380 40 0f e8 bc 7c a4 5c bd 1b d5 f9 39 83 e1 7e 3c
       -0.028327584 -0.053867802 0.00047651757 0.015556696
000390 91 0d d3 ba 48 f6 2b bd 6a 79 bd bc 42 7f ef 3b
       -0.0016102066 -0.04198292 -0.023129184 0.0073088715
0003a0 0e e1 85 bc 5e 11 d5 3c 7f b4 4d bb fa 79 fb 3b
       -0.016342666 0.026009258 -0.0031388102 0.007674453
0003b0 85 5d 78 3d ba e4 f3 bb 7c 2c 57 bd cc 01 6c 3d
       0.060636062 -0.007443038 -0.052532658 0.0576189
0003c0 e8 dc 79 bd 53 df cd bd 69 4d a8 bd ff 2c d0 bc
       -0.06100169 -0.10052361 -0.0821789 -0.02541208
0003d0 ab a7 99 bc 91 2d 85 3c 9b 5e 70 3b 85 1a 8e 3c
       -0.018756708 0.01625708 0.0036677483 0.01734663
0003e0 75 9f d3 3b d4 ac 86 bb 2f 15 dc bd 01 e7 fa bc
       0.0064582177 -0.004109958 -0.10746228 -0.03062773
0003f0 57 b9 8c bb e8 af 6f bd 58 84 05 3d 4d d2 d8 3c
       -0.004294555 -0.058517367 0.032596916 0.026467467

model.model.model.0.bias f4 [128]
000000 9b 2e bc 3c d2 b2 3a 3d 21 73 57 bd 65 74 72 3d
       0.022971442 0.045580693 -0.05260003 0.059193034
000010 c7 1f 0b 3d 39 11 77 3d 1d 6c 0c bd 87 18 70 39
       0.033965852 0.06031916 -0.034282792 0.00022897321
000020 5c c1 0e 3d e4 28 2e 3d 63 83 94 bb f2 89 6c bd
       0.03485237 0.042519465 -0.004532264 -0.057748742
000030 21 e4 fc bc f1 be 53 bd 45 70 2a bd ff cb 95 3c
       -0.0308705 -0.051695768 -0.041610975 0.01828575
000040 5a 07 aa 3d da b4 dd 3c 75 e8 3c 3c 35 d5 45 bc
       0.083021834 0.027063776 0.011530031 -0.012074758
000050 12 23 44 3d 87 cb 0c bd e9 e6 13 3d 0e 81 30 bd
       0.04788501 -0.034373786 0.036108885 -0.043091826
000060 68 df d1 3c 6a 96 59 3d 7c 21 97 bd ca e5 79 3d
       0.025619224 0.05312196 -0.073794335 0.06101016
000070 c6 e5 4d bc 0b 6e 22 3d 6a 36 a9 3b fa d5 34 3c
       -0.012566989 0.039655726 0.0051639574 0.011037344
000080 28 9d 83 3d a5 3d 97 bc f9 d8 21 bd 63 05 11 3c
       0.064264596 -0.018462012 -0.039513562 0.008851382
000090 3a 68 27 bc c0 84 f5 ba f3 0b 9e 3c 0e 65 52 3d
       -0.010217721 -0.0018731579 0.019292807 0.051365905
0000a0 d1 b1 77 bd 94 8c 9e 3c 55 a7 6e 3d 9a 6c 78 bd
       -0.060472313 0.019354142 0.05826505 -0.060650446
0000b0 07 17 27 bd 89 f9 df bc 2f 9d 6e 3d 40 24 98 bc
       -0.040793445 -0.027340667 0.05825537 -0.018571973
0000c0 1d 3a 61 3b 6e 7a 2f bd 7b ba cb 3c 4e 1a 66 3d
       0.0034366914 -0.042841367 0.024869194 0.05617743
0000d0 dc 61 e0 3c 75 fa 9c 3c d0 0c 1a 3d be b2 85 bc
       0.027390413 0.019162396 0.037609875 -0.016320582
0000e0 4a d8 cf 3b 25 94 7a 3d a9 34 06 bd 3a 3e 22 bd
       0.0063429223 0.061176438 -0.032765064 -0.039610125
0000f0 0c 8d 90 bc 32 e5 3b bd 86 37 c0 3b d6 87 8d 3d
       -0.017645381 -0.045872875 0.005865994 0.06910674
000100 67 79 a5 3d 30 3b c0 3c a0 b1 97 3d 24 2a 1f bd
       0.08079796 0.023465723 0.07406926 -0.038858548
000110 69 c3 03 3c e7 15 41 3d cf 84 81 3c 5c 43 90 3d
       0.008042195 0.04714003 0.015810398 0.07044098
000120 28 e4 7e 3d e7 db 3c bb f6 8b 3f bb 24 54 45 3d
       0.062229306 -0.0028817595 -0.002922771 0.048175946
000130 16 3a b1 3c 41 2c 48 bd 6b b3 41 3d 67 c4 5b 3d
       0.021634143 -0.04887033 0.047290247 0.0536541
000140 80 3f 64 3d 27 bf dd bc 26 58 db 39 7b 48 8f 3d
       0.05572462 -0.027068688 0.0004183661 0.069962464
000150 27 5c 4e 3d fb d5 84 3d 8e 1c 50 bc a6 5a 6b 3d
       0.050380852 0.06486126 -0.0127021205 0.057459496
000160 22 3f fb bb 8a bc 03 ba 2f 5d 66 3d 3b 93 24 bd
       -0.007667438 -0.0005025348 0.05624121 -0.040179472
000170 d0 9f 07 3d 49 5b 64 3c 29 a4 43 3d d6 85 83 bd
       0.033111393 0.01393778 0.047763977 -0.064220116
000180 b2 f3 5a bd bb 92 e9 ba f8 da f1 3c 9f a5 4e bd
       -0.053455062 -0.0017820218 0.029523358 -0.050450917
000190 a2 41 39 bd ee 8d 68 bc 4a 01 8a 3b 64 5e 08 bd
       -0.045228608 -0.014193995 0.0042115794 -0.033293143
0001a0 c8 7c a3 3d 86 04 63 bd 1a a7 14 3c 19 9c 5f 3b
       0.079827845 -0.055424236 0.009073043 0.003412014
0001b0 db ae 25 3d 9a 3d 28 3c fb b3 86 3d f6 2a ac 3c
       0.04044996 0.010268593 0.06577297 0.02101658
0001c0 7e ed 3b 3d 94 d3 ca 3b 22 b0 04 bd 0e 2d 1b 3d
       0.045880787 0.006189773 -0.032394536 0.037884764
0001d0 f0 aa ae 3c 73 46 28 bd 04 b1 c1 bc 5d fc 23 bd
       0.021321744 -0.04108281 -0.023643978 -0.040035594
0001e0 ba eb 0c 3d d2 b0 2c 3d ef ea b7 bc e0 04 86 3d
       0.034404494 0.042160816 -0.022450892 0.065438986
0001f0 96 de 63 3c fb 13 8b 3d 8a 3f 5c 3d a3 9e 65 bc
       0.013908049 0.0679092 0.053771533 -0.014014873

model.model.model.2.weight f4 [128, 128]
000000 90 39 92 bc 00 30 81 3b 6f 8f 7b 3c 14 5e a3 bd
       -0.017849714 0.0039424896 0.015354021 -0.07976928
000010 3d 09 3a bd 6d 53 d8 bc 7d 03 9f ba 8c 61 09 3e
       -0.045418967 -0.026406968 -0.0012131777 0.13416117
000020 a8 9c c8 3d 2e bb b6 3d 17 f0 ca bb 87 90 3c bd
       0.09795505 0.089224204 -0.0061931717 -0.04603627
000030 cd 71 75 3a 8c a7 4a bd c4 a2 36 3c 08 b6 0c 3d
       0.0009362966 -0.04947619 0.011147205 0.034353286
000040 fb ac 5f bc b0 00 dc bc bf 67 95 3d 3f 4d b3 bd
       -0.013652082 -0.026855797 0.072951786 -0.08754968
000050 7c 5d b5 bd 46 aa 53 bd 57 a2 a6 bd d9 4a a6 bd
       -0.08855721 -0.051676057 -0.081364326 -0.08119745
000060 30 5e ba bb 8c 30 46 bc 14 da 01 3c 8e 27 a9 3d
       -0.0056874976 -0.012096535 0.007925529 0.082594976
000070 3e dc fb 3c 61 c7 6c 3d b3 e3 86 bd 3d a6 9e bc
       0.030744668 0.05780733 -0.06586399 -0.019366378
000080 3e e7 98 bd 6f d4 86 bd e2 92 47 bd f9 8c 8a 3d
       -0.07465981 -0.06583487 -0.048724063 0.0676517
000090 4f 7a c3 3d ba 7b 01 3d 08 85 d9 3d af 9e 00 bc
       0.09544813 0.031612135 0.10621077 -0.007850333
0000a0 38 a6 0a 3d 08 15 bd 3c 82 3c 76 bc 67 2f c5 3d
       0.033849925 0.023081318 -0.015029075 0.09628182
0000b0 e8 b1 8f 3d 59 9e 48 bb f9 8e ee 3c fb 53 62 bd
       0.07016355 -0.003061196 0.029120909 -0.05525587
0000c0 7b 03 9f 3c 18 00 4f bb 2b ce b0 3d 83 97 9a 3d
       0.01941084 -0.003158575 0.086330734 0.0754843
0000d0 31 69 9b 3d 4d de d1 bb 7d 88 f5 3b 98 d2 b1 bd
       0.07588423 -0.006404674 0.0074930773 -0.08682746
0000e0 e2 72 7b bd 58 ea 39 3d 98 16 06 bd 87 41 13 3b
       -0.061388858 0.045389503 -0.03273639 0.0022469477
0000f0 a3 af 9d 3d 4f 3b 55 3d 45 32 83 bd f7 75 6e bd
       0.07699516 0.052058514 -0.064060725 -0.05821797
000100 21 13 e3 3c ca 0e ae 3c ba 52 1a 3d bf 6c 35 3d
       0.027719082 0.021247286 0.03767655 0.04429316
000110 51 17 51 3d df 9f 77 3a 19 ac d0 3d 62 f2 16 3d
       0.051047627 0.0009446125 0.10189075 0.036852248
000120 56 ab 68 3c a3 a0 8b 3c cf 28 ec bd 88 22 9c bd
       0.014201006 0.017044371 -0.11531221 -0.07623774
000130 f3 3a ae 3d 4a 78 37 3d 34 56 af bd e2 f7 8f bd
       0.085073374 0.04479245 -0.08561364 -0.07029702
000140 9b e2 86 3b fe 65 8e bd 62 86 03 bd 6f 12 65 3c
       0.004116369 -0.06953047 -0.03211058 0.013981446
000150 f4 be aa bc 65 af 2a 3d 09 b2 e3 bd 4f 81 61 3d
       -0.020843007 0.041671176 -0.11117942 0.05505496
000160 f2 9b 34 bd c1 b7 a9 bc a6 33 86 bd 85 41 43 bd
       -0.044094034 -0.020717504 -0.0655282 -0.047669906
000170 61 bf c0 3b 92 68 c4 bc 7e 1c 38 bd a0 bd b0 3c
       0.005882189 -0.023975644 -0.044949047 0.021574795
000180 2d 47 d6 3c 8b 98 3d bb 92 d0 05 3e c3 b0 9f 3c
       0.026156986 -0.0028930034 0.13067845 0.019493466
000190 d4 41 3e bd 19 ba 7e 3d 45 e2 c4 3c eb 4b 2c bd
       -0.046449497 0.062189195 0.024033675 -0.04206459
0001a0 b4 3c 86 3c c3 b0 92 3d 23 52 ff 3d 2e 08 d7 3d
       0.016386367 0.07162621 0.12466838 0.10499607
0001b0 bc bd 98 bd 3e 79 0a 3d 05 4a 23 bd 2c 77 60 3d
       -0.07458064 0.03380703 -0.039865512 0.05480115
0001c0 6e af 80 bd 53 bb e5 bb a8 f4 aa bc cb 9f 0a bc
       -0.062834606 -0.007010856 -0.020868614 -0.008460949
0001d0 61 05 cc 3d 06 53 e5 bd 87 d6 66 3d 47 ca a4 3d
       0.099619634 -0.11197476 0.056356933 0.08046394
0001e0 e3 e9 5a 3d 76 70 ac bc 3b 28 a1 3d d5 6a 8a bd
       0.053445708 -0.02104972 0.078690015 -0.06758658
0001f0 42 1c f1 bc 45 63 19 bd c5 73 82 3d 2f 43 ac 3d
       -0.02943242 -0.037448186 0.063697375 0.08411252
000200 fb a1 a2 3d 0c 96 3a 3d 4e cb 97 bc 53 2d 78 3d
       0.079410516 0.045553252 -0.01852956 0.0605901
000210 58 33 01 bd 78 99 de 3b ce 39 e4 3c 60 91 85 bb
       -0.031543106 0.0067931972 0.027859595 -0.004076168
000220 8f cb a2 3d bd 46 f1 bb b4 5e b4 bc 5a 96 e2 3d
       0.07948982 -0.007363169 -0.022017814 0.110638335
000230 74 b8 ab 3d 72 62 8f bd f8 2f 17 3c 53 cd 0a 3a
       0.08384791 -0.07001199 0.009227745 0.0005294878
000240 f9 9a 2d bd 56 e0 a6 3c 74 31 57 bd 7c e6 26 be
       -0.04238412 0.020370644 -0.052537397 -0.1629886
000250 67 37 9a bd dd c3 4b bd 55 23 63 bd 82 a8 26 3d
       -0.075300984 -0.049747337 -0.055453617 0.040688045
000260 7b 62 87 3d 00 fc 88 3d ee f1 1e bd 0b bc a6 bb
       0.066105805 0.0668869 -0.03880494 -0.0050883344
000270 19 e7 21 3d 86 4d 9a bd e2 c6 b8 bd ee 7e 9d bd
       0.039527033 -0.07534318 -0.09022309 -0.076902255
000280 b0 f6 84 bc 5e 27 3e 3d d3 88 88 bc 95 52 b5 3d
       -0.016230911 0.046424262 -0.016666805 0.08853642
000290 cf 4e c2 bc 4e db 3f 3d 61 d6 9f bd 4f c3 7a bc
       -0.02371922 0.046840005 -0.078045614 -0.015305354
0002a0 c7 b5 a5 bc 19 7d 83 3d 91 31 03 3d 6b 61 16 3c
       -0.02022828 0.06420345 0.032029692 0.0091785
0002b0 69 15 ce 3d 62 bd bb 3c 1d d4 7f 3d 66 9b a7 3d
       0.100626774 0.022917453 0.062458146 0.08183937
0002c0 50 39 8e bd 32 a2 d2 3d c5 34 af 3d 1a 0a 80 3d
       -0.06944525 0.102848426 0.08554987 0.06251927
0002d0 59 17 81 bc 2f 82 7a bd 15 67 a8 3d 00 c7 07 3a
       -0.015758203 -0.06115931 0.08222786 0.00051794946
0002e0 37 dd a3 bd 7f ea 62 bd da ef ad 3d 89 6b aa 3d
       -0.08001178 -0.055399414 0.08493014 0.08321292
0002f0 4a 13 9e bb ff 45 a6 3d af eb f3 bc 20 60 84 bc
       -0.004824077 0.081188194 -0.029775469 -0.016159117
000300 a5 23 c5 bb 14 56 45 bd 5b 7c 0b be 3f b3 ad 3b
       -0.006016212 -0.048177794 -0.13621657 0.005300909
000310 21 4b 1e 3d 34 d0 ed bc 39 1a ae 3d ca e7 4e 3d
       0.038645867 -0.029029943 0.08501095 0.05051402
000320 8d 39 3a 3d 07 fd 83 bd ff 1f 24 bd 2d 1a 42 3d
       0.04546504 -0.064447455 -0.040069576 0.047388244
000330 13 7e 98 3d 21 d2 4d 3b 89 a6 86 bd 5d 04 bb 3c
       0.07445922 0.0031405764 -0.06574733 0.022829229
000340 05 c1 a5 3d 7d b0 9a bd 78 84 79 bd c1 0a 94 bc
       0.08093456 -0.07553194 -0.060917348 -0.018071534
000350 22 d2 b6 3d 50 20 8f 3d 9d ce 63 bd 4b 4d 98 3d
       0.089267984 0.06988585 -0.055616964 0.074366175
000360 e9 c0 76 bc f5 d2 d8 3d 80 1e 10 bd 2d 13 f0 3d
       -0.015060642 0.10587112 -0.035185337 0.117224075
000370 82 54 b8 bd 6c fe 19 bc be 7c 82 bc 36 f5 0a 3c
       -0.090004936 -0.009399038 -0.015928622 0.008481314
000380 0b a5 12 3c 73 89 f4 3d 03 e6 99 3c 92 fe 24 bd
       0.008950482 0.11940279 0.018786436 -0.04028184
000390 a6 80 b0 3d 77 a4 7a bd 5e 07 07 3d 33 bc 6b 3d
       0.08618288 -0.061192002 0.03296601 0.057552528
0003a0 6c 2a 8a 3d 12 e1 67 bc 48 ad 59 3d 11 c7 3f 3c
       0.067463726 -0.014152782 0.05314377 0.011705176
0003b0 79 ea 33 bc 11 05 06 bd ac 89 1d bd 37 a4 36 3d
       -0.010981196 -0.032719675 -0.038461372 0.0445902
0003c0 f3 ee bf 3d ee 5a 5a 3d f0 3b d4 bc c4 8b 8b bd
       0.09371748 0.053309374 -0.025907487 -0.068137676
0003d0 c8 85 97 3d 07 06 00 3d dd 6c e2 3c aa ee 85 3d
       0.073985636 0.031255748 0.0276398 0.06539662
0003e0 5f 3e e9 bc ef c0 1c bd 76 96 84 3d 72 72 6a 3b
       -0.028472124 -0.038269933 0.06474011 0.003577378
0003f0 80 2a f6 bc e1 6f 89 3d 50 4e 12 bd 71 7c 95 3d
       -0.030049562 0.06710792 -0.035719216 0.07299126

model.model.model.2.bias f4 [128]
000000 ec d0 2b bc 5e 85 c6 3d e8 55 38 3d c1 b9 d3 3b
       -0.010486823 0.096934065 0.0450038 0.0064613526
000010 b9 33 4b bc 1c fd 03 bd 51 8a 2f 3d 19 e8 87 bc
       -0.012402468 -0.032223806 0.04285652 -0.016590165
000020 08 59 72 bd 2b a3 27 bd b4 e8 0b 3d 23 af da bc
       -0.059166938 -0.040927093 0.03415747 -0.02669484
000030 0c cb 53 3d 9d f4 83 3d f2 7f 64 3c be bf a9 bd
       0.051707312 0.06443141 0.01394652 -0.08288525
000040 ee b9 8b bd c0 52 9c 3d 66 a4 bd 3d b8 03 7d 3d
       -0.06822573 0.07632971 0.09259872 0.061771125
000050 f4 fb 89 3d 2d f4 b2 bd 8a fe 7d 3d 1a b3 6f 3d
       0.06737509 -0.08737979 0.062010325 0.058520414
000060 3a b1 36 bc 6a 77 62 3d cc 3e 11 bb fd b8 e7 bb
       -0.011150653 0.055289663 -0.0022162674 -0.007071613
000070 88 91 c7 bb 2c 63 be bb 59 ab 15 3c a0 00 ae 3c
       -0.0060903467 -0.005810162 0.009135091 0.021240532
000080 20 3a 40 3d 4c 40 0b bd 5a b8 93 3d dd da 06 bd
       0.046930432 -0.033996865 0.07212897 -0.032923568
000090 00 a8 5c 3d f0 df 5b bd fe ef c1 3d ba 34 5b bd
       0.053871155 -0.05368036 0.09469603 -0.05351708
0000a0 a7 44 8c 3b ca ca a3 3c ca 96 80 bb 28 93 02 3a
       0.004280645 0.019994158 -0.0039242255 0.00049810344
0000b0 db 22 97 3d 38 4b 7f bd ab 7d 2e bd 9e a7 b1 3d
       0.07379695 -0.062327594 -0.042600315 0.086745486
0000c0 3c 35 62 3d bb ee 3c 3d b4 b2 59 bd 8f 69 94 3d
       0.05522655 0.04612611 -0.05314894 0.07246696
0000d0 ba a0 ea 3c f5 84 58 3d f9 39 61 3d a3 28 77 bd
       0.028641094 0.052861173 0.054986928 -0.06034149
0000e0 e1 d4 63 bd e3 33 a3 3d ca a6 42 bd fc 39 0d ba
       -0.05562294 0.07968881 -0.047522344 -0.00053873635
0000f0 76 c9 c4 bc 9b 21 90 bd cb 2c 3f 3d 99 c8 68 bd
       -0.024021845 -0.0703766 0.046673577 -0.05683193
000100 04 e7 d9 bc 9d 7a 3a bd 49 26 a5 3c f5 01 b2 bc
       -0.026599415 -0.04552709 0.020159857 -0.021729449
000110 97 d2 4b 3d 38 48 c0 bc 74 d6 31 bd bd f8 85 bd
       0.04976138 -0.023471937 -0.04341741 -0.06541584
000120 7f d6 62 bd de bb 3a 3d 6d d8 71 bd be dd 21 3d
       -0.05538034 0.04558932 -0.05904429 0.03951811
000130 5a 3f 79 bd 41 c3 21 bd f5 b8 f5 bb df f4 97 3d
       -0.060851432 -0.03949285 -0.0074988552 0.07419752
000140 7d 54 c1 3d 80 31 93 3d 17 11 7f bd 28 5e 8b bd
       0.09439943 0.07187176 -0.062272158 -0.06805068
000150 5b 4f b0 3d ab 64 60 bd 21 ea 35 bd 1c 44 65 bd
       0.08608886 -0.054783504 -0.044412736 -0.055973157
000160 44 11 aa 3d 5a 0e 8d 3d fa 5d a6 3c 6c ca 70 3d
       0.083040744 0.06887503 0.020308483 0.058786795
000170 e7 bb ef 3c 69 ad 7a 3d 0e 2b 95 bd cd 8e a2 3d
       0.029264404 0.061200533 -0.07283603 0.07937393
000180 01 32 70 bc 0d 62 cf 3d b0 3d c1 3c bd 11 e7 3c
       -0.014660359 0.101261236 0.023588985 0.0282067
000190 0b 83 7b 3a bf 44 38 3d 57 7b 65 bd 33 56 ad 3d
       0.0009594417 0.044987436 -0.05602583 0.08463707
0001a0 70 b9 aa bd 84 d5 ab bc 96 df 81 bd f3 5d dc bc
       -0.08336151 -0.020975836 -0.06341474 -0.026900267
0001b0 e4 bc b3 3d 92 e7 fe bc 67 5a bc 3d e1 be 0d bd
       0.087762624 -0.03111628 0.091969304 -0.034605864
0001c0 34 c3 9b 3c 7c f4 ae 3d 66 7a 22 3d 76 94 9b bd
       0.019013979 0.085427254 0.03966751 -0.07596676
0001d0 f7 40 75 bd 25 e7 4e bd 29 8d 35 3c 99 98 4b 3d
       -0.05987641 -0.050513405 0.0110810185 0.049706075
0001e0 7c f0 36 bc fc 64 31 3d 41 52 af bd 36 06 43 bc
       -0.011165734 0.043309197 -0.085606106 -0.011903336
0001f0 08 9e fd 3c 76 6b ba 3d 87 6c a9 3d 6a 9e 31 3d
       0.030959144 0.09102528 0.08272653 0.043363966

model.model.model.4.weight f4 [128, 128]
000000 a7 21 c5 3d d0 a7 2b 3d dc 02 5d bd 85 eb 17 bd
       0.09625559 0.041908085 -0.053957805 -0.037089843
000010 7d fa 8f bd 07 36 c5 bb ff c3 ad bd a1 38 99 bd
       -0.07030199 -0.0060184035 -0.08484649 -0.07481504
000020 d6 07 fe bc 3a 8d 48 3d 77 5f 73 3d 9f 9a 94 bc
       -0.031009596 0.04896281 0.059417214 -0.018140135
000030 07 63 99 bc 0d 76 2d bd 38 b4 35 3d 88 c9 3e 3c
       -0.018723978 -0.04234891 0.044361323 0.0116447285
000040 38 e6 bf bb d4 26 80 bd 3f 51 51 3b 3f 28 4d bd
       -0.0058563016 -0.06257406 0.0031939296 -0.05008721
000050 38 64 7e 3d 91 9b 42 bd 26 ec bb b6 56 70 58 bd
       0.062107295 -0.04751164 -5.6005256e-06 -0.052841507
000060 6f 39 9f 3d 86 74 ad 3d 21 fa 18 3d c2 81 68 3d
       0.077746265 0.08469491 0.037347917 0.05676437
000070 89 29 19 bc e9 81 a1 3c 3a 6a dc ba 62 fc 24 3d
       -0.009348282 0.019715266 -0.0016816326 0.040279754
000080 44 01 91 bd d9 ec 65 3d bd 05 26 bc 4b e7 b1 3d
       -0.070803195 0.05613408 -0.010133204 0.08686694
000090 34 f4 14 3c 55 0d b5 bd de 3d 02 bd 5e eb bf bc
       0.009091426 -0.088404335 -0.031797282 -0.023427662
0000a0 6d 54 51 3c c2 10 0b 3c e2 8c 89 bd d1 5a 00 bc
       0.012776476 0.008487882 -0.067163244 -0.007834152
0000b0 f9 29 b1 bb ae ab 52 bd 1a db dd bc 88 97 11 bd
       -0.005406615 -0.051433258 -0.027082015 -0.035544902
0000c0 a8 50 78 bd 1a 80 92 bd f9 69 8d 3d 2e 43 28 3d
       -0.060623795 -0.0715334 0.06904978 0.041079693
0000d0 d6 15 00 bd 01 e6 4c 3c b8 d0 39 3d c9 c9 b3 bc
       -0.031270824 0.012506009 0.045365065 -0.021946805
0000e0 42 4c a6 3d cf 3b b3 3c 29 70 f9 3b 98 fd c7 3c
       0.08120014 0.021879105 0.0076122475 0.024412915
0000f0 04 bf 1a 3c 6c 19 e0 3b 50 72 87 bd 26 9c b8 bc
       0.009444956 0.006838968 -0.066136 -0.022535395
000100 55 59 00 bd 47 ae 47 3c c0 a4 57 3d f1 d2 b1 3d
       -0.031335194 0.012187547 0.052647352 0.08682812
000110 20 91 06 bc b2 d3 72 3d b7 0d 65 bd 80 de 02 bd
       -0.008213311 0.05928392 -0.055921283 -0.031950474
000120 f4 f3 d0 3c d3 03 7f 3c 2e f4 3c 3d 5d e5 8f 3d
       0.02550695 0.015564877 0.046131305 0.070261694
000130 d4 26 a0 bd 28 b3 8d 3d ac 4a 1b bd 8e e5 6d bd
       -0.07819906 0.06918937 -0.03791301 -0.05808025
000140 5c 65 7b 3d 8f 97 ad bd ac d1 6c 3c 9c d1 b8 3c
       0.06137596 -0.08476173 0.014454287 0.022560887
000150 a6 8e b1 bd 04 ea 84 3d b6 94 53 bd 32 4f f3 bc
       -0.08669786 0.064899474 -0.051655494 -0.02970085
000160 06 69 39 3c e5 dc b1 3d 8e a4 b6 3d b4 12 79 bd
       0.011316543 0.086847104 0.08918105 -0.060808852
000170 ae f0 ae bd 01 60 2d bd f3 bc be 3d 91 51 b3 bc
       -0.08542 -0.042327885 0.09313383 -0.02188948
000180 ee 33 96 3b 0f 3f a3 3d 64 44 56 3c ed ae e5 bc
       0.004583827 0.07971012 0.013077829 -0.028037513
000190 3d 37 b1 3d b3 74 37 3d ed 28 42 3d ae 8d 93 3d
       0.08653114 0.044789027 0.04740231 0.07204758
0001a0 c0 b2 7a bd cc 05 dd bb c6 50 47 3c dd 86 9f 3d
       -0.061205626 -0.006745076 0.012165254 0.07789395
0001b0 85 35 76 bd 0e 48 86 3d e8 a9 11 bd 05 67 6a 3d
       -0.060109634 0.06556712 -0.035562426 0.057227153
0001c0 f4 22 c8 3c ef f5 9f bd e9 7c a6 3d b2 57 33 3d
       0.02443073 -0.0781058 0.081292935 0.043784805
0001d0 bd c8 92 3d 44 9d cc 3c 54 1c 2e bd fd e6 69 3d
       0.07167194 0.024977334 -0.042507485 0.057105053
0001e0 a2 a7 15 3c fc 87 83 3d f9 03 7c 3d 1b 2a 4d bd
       0.009134205 0.06422421 0.061527226 -0.050088983
0001f0 96 fd 9c bd 09 3a 30 bd 26 d8 47 3c 0f 78 93 bd
       -0.07665555 -0.043024097 0.01219753 -0.07200634
000200 c0 9f 6a 3b 1c 73 89 3c 42 53 6c bd c8 c1 bc 3c
       0.0035800785 0.016778521 -0.05769659 0.02304162
000210 1b ab 97 bd d0 75 90 bd e7 3f 89 bd f8 e8 3b bd
       -0.07405683 -0.07053721 -0.067016415 -0.045876473
000220 5c a4 ea 3c 70 2e c8 3b ac 2b 86 3c 20 29 78 bd
       0.028642826 0.0061090514 0.016378246 -0.060586095
000230 62 cc 32 3d f5 e3 97 3d 7b 6b 9d 3d 72 e8 b4 bd
       0.043651946 0.07416526 0.07686516 -0.08833398
000240 d0 63 d7 bc 54 a8 95 bd fb b5 8f bd 52 a3 8f bd
       -0.026292711 -0.07307497 -0.07017132 -0.07013573
000250 14 cf a0 3c 43 4e 8f bd b4 22 ba bc 7a 62 11 3d
       0.019629993 -0.06997349 -0.022721626 0.035494305
000260 41 37 31 bd 50 16 9f bd e8 13 3c bd f8 2a 43 3c
       -0.043265585 -0.07767928 -0.04591742 0.0119121
000270 a4 51 a6 3c 48 26 a6 bc d8 a8 44 bc 24 99 c8 3c
       0.020302601 -0.020281926 -0.012003146 0.024487086
000280 38 9a 31 bc 1b 9a 00 bd 56 ec fb bc b0 30 de bc
       -0.010839991 -0.031396966 -0.030752342 -0.027122825
000290 09 72 02 bd 65 07 9a bd a2 7d 65 bd 6f 88 87 3d
       -0.031847034 -0.07520942 -0.056028016 0.066178195
0002a0 06 92 5c bd 60 7c 04 bb 2c 7a 9c 3c 38 fa 69 3c
       -0.053850196 -0.0020215735 0.019101225 0.014280848
0002b0 8b 7f 55 bd 18 95 ae bd b0 e8 6a bc 50 fc 6f bc
       -0.052123588 -0.08524531 -0.014337704 -0.014647558
0002c0 a0 84 80 bb f0 65 f7 bb d5 d5 99 bd 86 99 49 bd
       -0.00392206 -0.0075499937 -0.07511488 -0.049218677
0002d0 6c a4 80 bc 0c 91 94 bd 40 cf 8c 3a 27 81 b4 bd
       -0.015703402 -0.07254228 0.0010742918 -0.08813696
0002e0 6f 5a 00 bd 6e 50 0e 3d 46 00 91 bd ce f7 a7 bd
       -0.031336244 0.034744672 -0.0708013 -0.08201562
0002f0 f8 51 6e bd 92 95 9e bd 7c c6 90 bd 7e 83 ab bd
       -0.05818364 -0.07743372 -0.07069108 -0.083746895
000300 d1 73 84 3d 8f 71 89 3d 22 de 2d 3d ca 03 a3 bd
       0.06467403 0.06711113 0.04244817 -0.07959707
000310 cf 3d b0 bd 5a de 47 3d a3 16 9b 3d 4a 9b 4a 3d
       -0.08605539 0.048796035 0.07572677 0.0494645
000320 d8 35 b2 bc 10 dc ed 3b 0c a9 b0 bd c5 26 a1 bd
       -0.02175419 0.0072588995 -0.08625993 -0.07868723
000330 b4 aa 85 3c 3c 22 c0 bc 49 6e 57 bd e8 14 2f 3c
       0.01631675 -0.023453824 -0.05259541 0.010686137
000340 b0 a5 08 bc 90 11 df 3b c3 bd 91 3d 40 49 69 bc
       -0.008340284 0.0068075135 0.07116272 -0.014238656
000350 d0 d1 b5 bb e0 7b 52 3b 04 97 c9 bc da cb 4f 3d
       -0.0055486932 0.0032117292 -0.024608143 0.050731517
000360 49 d1 a6 3d 31 15 8f 3d 3b 8a a4 3d 91 78 10 bd
       0.08145387 0.06986464 0.08034178 -0.03527123
000370 2a b8 5b 3d 6c b4 a4 3c 14 4e b3 3c 42 9a 36 3d
       0.05364243 0.020105563 0.021887816 0.044580705
000380 00 9d 4d bb 24 97 7b bd 1a 56 48 3d 4f 42 b1 3d
       -0.0031374097 -0.061423436 0.048910238 0.086552255
000390 b5 26 a1 bd ef cd 3d bd e2 13 59 3d fe 6b 5f 3d
       -0.07868711 -0.04633897 0.052997477 0.05454635
0003a0 48 1e b7 3c da c1 45 bd 30 85 02 bc 20 74 7d bb
       0.022353306 -0.048280574 -0.007966325 -0.0038673952
0003b0 b7 4f 81 3d a1 c4 9f 3d 20 f8 41 3c 00 ae 4e bc
       0.063140325 0.07801176 0.011838943 -0.012614727
0003c0 79 06 a0 bd 32 76 3e bd 67 86 a4 3d d0 51 bd bc
       -0.078137346 -0.04649944 0.08033448 -0.0231103
0003d0 4a 05 07 3d 14 f4 b7 bc ea ca 66 3d 81 56 9a 3d
       0.03296403 -0.022455253 0.056345858 0.075360306
0003e0 60 dc 05 3b 54 d8 9c 3c 10 05 19 bd d8 e3 1e bd
       0.0020425543 0.019146122 -0.037358344 -0.038791507
0003f0 b8 e2 ca bc 28 04 2e bd 40 8b 7f 3c 50 f7 8f bb
       -0.024766311 -0.042484432 0.015597165 -0.0043934956

model.model.model.4.bias f4 [128]
000000 f0 07 51 bd 94 ce 9a bd f0 c0 b1 3d 57 b1 01 3d
       -0.05103296 -0.07558933 0.08679378 0.031663265
000010 be b6 2d bd ca 9e 3c 3d 9e 4d c5 3c 19 f9 24 bc
       -0.042410605 0.04604987 0.024084862 -0.010069155
000020 a4 a4 0c 3d 94 cf c7 3c 76 d9 07 3d 68 4f 41 bd
       0.0343367 0.024390973 0.03316637 -0.04719487
000030 b1 9d 47 bd a4 f9 ce 3c ac e2 78 b9 c8 4f 8d 3d
       -0.04873437 0.025265522 -0.00023735565 0.06899983
000040 be 0b 83 3d 59 c0 8c 3d 02 1f a4 3d c2 80 f3 3b
       0.06398724 0.06872625 0.08013727 0.0074311206
000050 b4 80 d2 bb 8c db 55 3d 18 ad 67 bd a8 72 63 3d
       -0.006424034 0.05221133 -0.05656156 0.055529267
000060 96 af 42 bd 7c 10 98 3c 4d 65 01 bc f8 6f b1 3c
       -0.047530733 0.018562548 -0.007897687 0.021659836
000070 89 56 93 bd a4 d2 77 bd 18 20 05 3c 6d 8d 4d 3d
       -0.0719424 -0.060503617 0.0081253275 0.050183702
000080 46 46 05 3d 8c 55 83 bd 24 44 bc 3c 1a 54 34 3d
       0.03253772 -0.06412801 0.02298171 0.044025518
000090 ff b5 b6 bd 0c 01 74 3d 9b b2 63 3d 37 34 78 3d
       -0.08921432 0.05957131 0.055590253 0.06059667
0000a0 ac 06 2f 3d d6 85 91 3d 45 21 9b 3d f9 99 c7 bc
       0.042730972 0.07105605 0.07574705 -0.024365412
0000b0 8d 6b d9 3c 4c 08 61 bd c8 59 51 3d 6b 9c a2 3d
       0.026540542 -0.054939553 0.051111013 0.079399906
0000c0 80 fe aa bd 79 8c 3d bd 3a d0 aa bd 90 8c 2c bd
       -0.08349323 -0.046276543 -0.08340497 -0.04212624
0000d0 71 9f be 3b fd e6 03 3d 2c aa 79 bb d2 58 99 bc
       0.0058173467 0.03220271 -0.0038095815 -0.01871911
0000e0 80 ea 8c bd 37 b2 c1 3d 66 75 b5 3d 5a 0e 53 bd
       -0.06880665 0.0945782 0.088602826 -0.05152736
0000f0 e1 b0 9a bd 1d 51 53 3c 8b 13 e6 3c 3e 9c 8a bd
       -0.07553268 0.012897757 0.02808549 -0.06768082
000100 99 1e 8d bd 31 26 1c 3d d9 f8 e7 bc b7 d8 15 3c
       -0.06890602 0.03812236 -0.028316902 0.009145907
000110 73 28 12 bd 63 8a 04 3d 7e 41 a7 bd 3c 19 6f 3d
       -0.035683107 0.03235854 -0.081667885 0.058373675
000120 b6 15 a3 bd f8 a6 48 bc e5 46 89 3d 6b bb 6c 3d
       -0.079631254 -0.01224684 0.06702975 0.057795923
000130 87 29 50 3d 85 a3 13 bd 52 98 21 3d b8 e9 67 3d
       0.050820854 -0.036044616 0.039451905 0.056619376
000140 24 1e 7b ba cd 63 e8 3c cc 64 9f bc b6 ac ac bc
       -0.00095793814 0.028367901 -0.019457243 -0.021078449
000150 bb a6 e9 3c d8 6b 97 3d 7c c5 7f bd 62 e6 9a bd
       0.028521886 0.073936164 -0.062444195 -0.07563473
000160 ff 60 eb 3c 77 f5 8b 3c 94 99 c2 39 62 64 90 bd
       0.028732775 0.01708482 0.00037116988 -0.070503965
000170 21 fe a4 3c 01 e4 8d bd 95 a3 b6 3d 04 9e 1b bd
       0.02014071 -0.06928254 0.089179195 -0.037992492
000180 be d7 dd 3c 88 b7 64 bc d0 ff a6 3d 2b f5 41 bd
       0.027080413 -0.013959773 0.08154261 -0.04735295
000190 51 bc 44 3d fe 2f d3 3d cb fb 66 bd a0 a0 8a 3d
       0.048031155 0.10311888 -0.056392472 0.06768918
0001a0 ed 8d 97 3d 05 da c0 3b b4 d7 f5 bb c9 b0 4d bc
       0.07400117 0.005885365 -0.0075025205 -0.012554356
0001b0 db 4e 9c 3d 21 03 84 bd 11 b5 24 bd 3b 96 64 3d
       0.07632228 -0.06445909 -0.04021174 0.055807333
0001c0 c9 2a b6 3d eb 8a a1 3d f7 21 a1 3c 45 da 43 bd
       0.08894879 0.078878246 0.019669516 -0.04781558
0001d0 33 69 30 bd 10 8b ad 3d 3f cf 66 bc c6 de 15 3d
       -0.043069076 0.0847379 -0.014087497 0.036589406
0001e0 00 96 60 39 e5 0d b0 3d 43 2f 59 bd 4c 2b c1 3c
       0.00021418184 0.085964 -0.053023588 0.023580216
0001f0 ac c3 0b bd b3 2e a0 3c 1c df af bb 73 b3 b5 3d
       -0.034122154 0.019553518 -0.005367173 0.08872118

model.model.model.6.weight f4 [128, 128]
000000 63 23 b2 3d c8 a0 47 bc e6 aa 8c 3d 67 9b 86 3d
       0.08698156 -0.012184329 0.06868534 0.065726094
000010 bd 48 9a bd 6b 9c b4 bd 1c b7 b7 bd 73 22 5d 3d
       -0.07533405 -0.08818897 -0.08970472 0.05398793
000020 12 57 a8 3a 49 b7 d0 bc 0f 1b a5 bd 66 9f fc 3b
       0.0012843332 -0.025478022 -0.08061802 0.0077094315
000030 8f d5 9a bd 86 70 3c bc a5 f4 bb bc b6 7d 9b bd
       -0.07560264 -0.011501437 -0.022943804 -0.07592337
000040 bb b5 fe bc a3 91 15 bd 6d 7a 7f bd be 39 95 bd
       -0.031092515 -0.036515843 -0.062372614 -0.07286404
000050 54 f9 31 bd fe 81 3e bd 05 77 a5 bd bd d9 a9 3a
       -0.04345067 -0.04651069 -0.08079342 0.0012958568
000060 9e 04 26 3d 15 9e 8e bd c1 35 04 3d 50 32 0e 3c
       0.040531747 -0.069637455 0.032277826 0.008678988
000070 11 40 4c bd 7e 8a 02 3d ff 0e 42 3d a2 26 88 3d
       -0.049865786 0.031870358 0.047377583 0.066479936
000080 5e 2d 44 3d ab f8 17 bc 72 b8 a5 3d a1 08 81 3d
       0.047894828 -0.009275596 0.08091821 0.06300474
000090 36 6e 4d 3d 38 26 b3 bd da 5b e3 bc 81 bb 62 bc
       0.050153933 -0.08747524 -0.02775376 -0.01383865
0000a0 f7 a0 3c bc 8d e4 d2 3c 54 0d bb 3c 4a 99 a1 bd
       -0.011512986 0.025743747 0.022833504 -0.07890566
0000b0 45 a8 a4 bd 62 77 e9 bc e9 66 f3 3b 5b 68 ad bd
       -0.08039907 -0.028499309 0.0074280393 -0.0846717
0000c0 80 75 ad bb b6 d2 a5 3d 40 f1 30 bd d6 79 19 bd
       -0.005293548 0.080968305 -0.043198824 -0.037469707
0000d0 59 43 a5 3b be 7c 9f ba 3d 8f 0a bd e1 cf 2f bc
       0.005043429 -0.0012167913 -0.03382801 -0.010730715
0000e0 84 c1 28 bc 13 22 51 3d d5 e8 80 3d 15 da ae bd
       -0.010300044 0.051057886 0.06294409 -0.085376896
0000f0 cc 6d 98 bd 3d 65 07 3d 58 72 7f bd 7b 98 8f bc
       -0.07442817 0.033055533 -0.062364906 -0.017528763
000100 e9 36 38 3d 4f 9f 4a 3a 47 e7 3e bd b1 b6 8b 3d
       0.04497424 0.00077294273 -0.046607282 0.06821955
000110 ea 44 5e 3d 02 e2 34 bd 6d 32 98 3d 17 15 5a bd
       0.05426494 -0.04416085 0.07431493 -0.05324277
000120 1b 78 06 ba ed 22 31 bd 85 3c 8b 3d 70 76 cb 3c
       -0.00051295914 -0.0432462 0.067986526 0.024836749
000130 fa cd b2 3c b2 b4 98 bc 98 ec 00 3d 82 3b e0 bc
       0.021826733 -0.01864085 0.031475633 -0.027372126
000140 65 5a 6f bc 58 c3 57 3c 1f 1e 99 bd 09 46 3c 3d
       -0.014608954 0.013169132 -0.07476448 0.04596523
000150 87 54 f9 bc ab 4f 85 bc 75 9b a6 3a 4e 28 33 bd
       -0.030435814 -0.01627334 0.0012711125 -0.04373961
000160 d7 6e 32 3d 81 c1 54 3c 6b 45 8f 3d e9 f7 6a bd
       0.043562736 0.012985588 0.06995662 -0.05736533
000170 ab e4 cf 3c 39 f9 a0 3d f6 6c 79 39 4b eb 96 bd
       0.025377592 0.078600354 0.00023787082 -0.07369097
000180 a9 aa f9 39 10 fd d5 bc bd cc 4b 3d 1e f8 48 3d
       0.00047620133 -0.026121646 0.0497558 0.049064748
000190 f4 3b b4 bc ec d1 0f 3d b0 16 62 bd f2 43 79 bd
       -0.022001244 0.035112306 -0.055197418 -0.060855813
0001a0 c2 04 80 bd 77 7c 68 bc 7e a3 a1 bd 78 3b 89 3b
       -0.062509075 -0.014189831 -0.07892512 0.0041879974
0001b0 f5 8a 08 bd 1c c7 6d 3d d2 05 99 bd 22 7c d5 3c
       -0.033335645 0.058051214 -0.07471813 0.026060168
0001c0 7b 47 74 bd ae 6f ba 3c dc 6e b2 3c 41 ff 8b 3d
       -0.05963848 0.022758331 0.021781377 0.06835795
0001d0 fe 8c 70 3d 49 eb b8 bc 07 8f f2 bb e9 d0 53 3c
       0.05872821 -0.02257313 -0.007402304 0.012928226
0001e0 16 af 09 3d 12 d7 af bd 6e 4c ff bc 6c 9f a5 3d
       0.03361424 -0.08585943 -0.031164374 0.08087048
0001f0 c0 14 b6 3a 2a 10 7b 3b 1e 8c 9d bd 85 86 49 3d
       0.0013891682 0.0038309195 -0.07692741 0.049200553
000200 7e 34 a2 bd 3f 5c 8d 3d c2 5b 59 bd 15 94 a4 bc
       -0.07920168 0.0690236 -0.053066023 -0.020090142
000210 90 0a 10 bb 16 ae bd bd 38 4c 8a 3a 7c 7b 98 3d
       -0.0021978952 -0.0926172 0.0010551279 0.07445428
000220 50 96 16 3d db 03 8d 3b 0d 46 66 3d 45 d9 84 bd
       0.036764443 0.004303438 0.05621915 -0.064867534
000230 b4 b7 d2 bc 65 89 95 3d 62 c2 23 bc 2e 8b 82 bd
       -0.025722362 0.073015966 -0.009995075 -0.06374203
000240 c8 60 8c bc d7 e6 82 3d 5b bd 0b 3d 50 c6 3a bd
       -0.017135993 0.063916855 0.03411613 -0.04559928
000250 50 16 1c bd 38 04 cf bc ed 48 1c bd 1c ff f3 3c
       -0.038107216 -0.025270566 -0.038155485 0.029784732
000260 f3 ac 82 ba 96 16 d4 bc b5 5a b3 bd 6a a4 2d 3d
       -0.0009969756 -0.025889676 -0.08757535 0.042393126
000270 70 e0 65 bd 26 44 34 3d d1 d8 3a 3d c1 ef 93 3c
       -0.056122243 0.044010304 0.04561693 0.01805866
000280 da 17 90 3d 91 c9 53 3d dd 56 d8 3c 5e 77 68 3b
       0.07035799 0.0517059 0.026408607 0.003547154
000290 c3 7a 05 bd 00 cc 16 3d d3 d7 7c bd 8d 89 81 3d
       -0.032587778 0.036815643 -0.061729264 0.06325064
0002a0 15 b8 57 3d 51 58 d4 3c f3 ab ab bd 1f 5c 44 bc
       0.05266579 0.025921019 -0.08382406 -0.011984854
0002b0 5f 91 52 bc 34 bc bc 3a dc 3b 80 bd 7a fb 8a bd
       -0.012852042 0.0014399351 -0.06261417 -0.067862466
0002c0 e6 85 35 3d da 05 34 bc 3f c2 8c 3d 87 f0 c6 bd
       0.04431715 -0.010987723 0.06872987 -0.09713846
0002d0 dc 6f 47 3c 58 34 db 3a 19 1f 21 bd d4 7f e8 3c
       0.012172665 0.0016723974 -0.039336298 0.028381266
0002e0 16 72 f8 b9 ef 1e 4b bd 05 b4 1d bd be ab 0b bd
       -0.00047387247 -0.049590047 -0.038501758 -0.034099333
0002f0 94 1d 19 3c ec 27 b3 bb f4 38 80 3c a8 e8 31 bd
       0.009345431 -0.0054674055 0.015652157 -0.04343477
000300 e8 87 06 bd 97 b1 89 3d d7 ee 51 3d bc 83 93 bd
       -0.032844454 0.06723326 0.051253166 -0.07202861
000310 b1 0d 10 bd 65 06 d1 3c e6 32 cd bc 86 00 7a bd
       -0.035169307 0.025515744 -0.025048684 -0.061035655
000320 0f 09 39 3d 1d 90 85 3d 8e f8 c9 bd 21 20 ad bd
       0.045174655 0.06521628 -0.09861861 -0.08453394
000330 c0 fe e8 bc 04 f7 59 bc 5b 94 43 bd 39 1e 8a 3d
       -0.028441787 -0.013303522 -0.047748905 0.06744046
000340 50 9c 26 3d ee 70 9a 3c 4f e1 32 bc 53 d5 8d 3a
       0.040676415 0.018852677 -0.010917976 0.0010821022
000350 09 f7 78 bd 10 4a 1b bc 93 ec 34 bd 4d fa 3d bc
       -0.060782466 -0.009478107 -0.044170927 -0.011595321
000360 6b bb 2c bd f8 ff 86 bd dd b4 83 3d d0 98 70 bd
       -0.042170923 -0.06591791 0.06430981 -0.058739483
000370 e2 ba 7a 3d 4d d2 c5 3c 32 ee 4e 3d 8a db b6 3d
       0.06121338 0.02414813 0.05052013 0.089285925
000380 79 88 58 3c 80 1d 0d 3d 36 0b a5 3a c4 dd 46 bc
       0.013216131 0.03445196 0.0012591842 -0.012137834
000390 78 de f0 3c bf b0 1d bd 0c f7 d2 3c 11 0f 8f bd
       0.029402956 -0.038498636 0.025752567 -0.069852956
0003a0 8a c2 c7 3c 5d 99 15 bd 76 83 21 3c c7 c6 1a bd
       0.024384756 -0.03652321 0.009858003 -0.037787225
0003b0 9e 7f 34 bd 1a 02 38 3c 36 75 99 3d d5 0f 8b 3d
       -0.044067018 0.01123097 0.07493059 0.06790129
0003c0 2b b4 2a bd 6a 22 2d 3d 2f 57 9a 3d 68 54 90 3d
       -0.041675728 0.042269148 0.0753616 0.07047349
0003d0 b0 ef 68 bc fc b0 52 3d 99 b8 fa bb 23 21 66 3d
       -0.014217302 0.051438317 -0.0076514003 0.056183945
0003e0 23 24 05 bd 10 af 01 3d 0a 6e a0 3d d2 5a 07 3d
       -0.032505166 0.031661093 0.07833488 0.033045597
0003f0 f7 30 3d bd 85 b4 57 3d 3a 11 3f 3d 13 f1 76 3d
       -0.046189275 0.05266239 0.046647288 0.0602885

model.model.model.6.bias f4 [128]
000000 9c ad 3a ba be 8c d4 3c 44 c3 ad bd cf b6 bd 3d
       -0.0007121207 0.025946017 -0.084845096 0.092633836
000010 23 ea 4d 3d c0 d0 97 3d 3e c3 a0 3d 09 0d b1 bd
       0.05027212 0.07412863 0.078497395 -0.086450644
000020 a5 3f 5c bd 53 1b 2a bd 80 3e 14 bd ff d3 ba 3c
       -0.053771634 -0.041529965 -0.036192417 0.022806166
000030 e3 e8 b4 bd 90 32 87 3d 19 8e 61 bd 95 61 d3 3c
       -0.08833482 0.06601441 -0.055067156 0.025803367
000040 25 85 86 3c 30 ec 99 bc 65 2f 31 3d f9 61 48 bd
       0.01642091 -0.01878938 0.04325809 -0.04892156
000050 d2 18 98 3d cb 87 01 3c 71 4f 8c bd dd e9 0f 3d
       0.07426609 0.007905911 -0.0685109 0.03513514
000060 c4 6f 22 3d 48 08 5b bd 22 09 ae bc ee 9e 9c bc
       0.03965737 -0.053474694 -0.02124459 -0.019118752
000070 a5 67 69 3d 4e 48 89 3d 29 68 3b bd f7 da 96 3b
       0.05698361 0.06703244 -0.04575363 0.0046037394
000080 9b 30 f2 3c 0d 3a a2 3d 38 18 b3 bd 7c 9a ef bc
       0.029564193 0.079212286 -0.08744854 -0.029248469
000090 c9 a7 52 bc 74 5a 57 bd 64 b8 70 bd a5 65 56 bd
       -0.012857386 -0.052576497 -0.0587696 -0.05234303
0000a0 ae 08 07 bd 2c 82 b3 bd c1 20 80 bd 8c a9 6a bd
       -0.032967262 -0.08765063 -0.06256247 -0.0572906
0000b0 21 bc b4 bd 30 6f 6b bd bf 89 65 bd e2 70 2c 3d
       -0.08824945 -0.057479084 -0.056039568 0.04209984
0000c0 73 0c 5e 3d 6d a6 a7 3d 6c ec b2 3c 53 75 17 3d
       0.05421109 0.0818604 0.02184125 0.036977123
0000d0 a0 97 b3 bc ad 7c ef bc ad 04 3a bc 4e 43 14 bd
       -0.021922886 -0.029234255 -0.011353654 -0.036197
0000e0 f8 c7 b4 3d b6 87 8c 3b 24 ef b5 3d aa d5 9b bd
       0.088272035 0.004288639 0.08883503 -0.076091126
0000f0 8b 6f 51 3d df 68 99 bc f8 14 a8 bc e3 13 93 3c
       0.051131766 -0.018726764 -0.020517811 0.017953819
000100 33 ac 65 bd 0f 3d 1f 3d 43 0a b0 3d 7c 08 45 bd
       -0.056072425 0.03887659 0.08595707 -0.048103794
000110 b1 41 df 3c 45 b7 b9 bc b7 6d 5f bd 0d 95 00 3d
       0.027253004 -0.022670398 -0.05454799 0.031392146
000120 6c 54 a0 bd cb da 7d bc e5 b4 34 bd 54 3a 69 3d
       -0.07828602 -0.015494059 -0.044117827 0.05694039
000130 d2 1f b6 bd 4a 18 8b bd ff d8 85 3d b8 35 bc 3d
       -0.08892788 -0.06791742 0.06535529 0.091899335
000140 60 67 6a bd f0 a4 02 bc 85 e3 8f bd 2f fa 79 3d
       -0.057227492 -0.0079738945 -0.07025818 0.06102961
000150 05 b1 eb 3b c3 24 e1 3c da 47 8a bd 79 5a b1 bc
       0.007192733 0.02748335 -0.06751986 -0.021649586
000160 a3 cf 8c bd 86 81 c2 3d 43 6b a4 bc dd 83 4f 3d
       -0.06875541 0.09497361 -0.020070678 0.050662864
000170 fd d8 14 3d 30 bf a1 3d ee c9 c1 3c ae 38 51 bd
       0.03633975 0.07897794 0.023655858 -0.051079445
000180 41 a2 c4 3d 83 f1 92 bc 6a 34 ad 3d 6c 87 d7 3d
       0.0960126 -0.017937427 0.08457263 0.105238765
000190 e4 10 02 bd e2 cf 79 bd 2a 9b 82 bd 37 3b 0e 3d
       -0.03175439 -0.060989268 -0.063772514 0.03472444
0001a0 a4 03 59 3d 90 6c 40 bd 5e 7d 35 bd 31 5b e2 bb
       0.052981988 -0.046978533 -0.044309013 -0.0069078435
0001b0 49 69 54 3d 9b d2 a9 bc 50 68 31 bd c3 c9 85 3d
       0.05185822 -0.020730307 -0.04331237 0.065326236
0001c0 c2 bd 33 3c 09 1e 9d 3d 8d cd 39 3d 92 4c 08 bc
       0.010970535 0.076717444 0.045362044 -0.008319037
0001d0 38 57 83 bd 0b 74 91 3c 66 96 3e bd ae 1b cf 3b
       -0.0641312 0.017755529 -0.04653015 0.0063204383
0001e0 e4 d0 a2 bd ea 1f c3 3d ad a1 eb bc 42 cb 0b bd
       -0.07949999 0.095275715 -0.028763616 -0.03412939
0001f0 80 62 d8 3a dc 2a bf bc 0f c2 e4 bc 82 83 31 3d
       0.0016508847 -0.023335867 -0.027924566 0.043338306

model.model.model.8.weight f4 [123, 128]
000000 a7 5b af 3d e7 82 9c bd 1d 97 9a 3d 21 39 b3 3d
       0.08562403 -0.07642155 0.07548354 0.08751131
000010 4a 5a 08 3d 1d 44 9f bd af d9 91 bd c5 49 1a bd
       0.03328923 -0.077766635 -0.07121598 -0.03766801
000020 3a 11 40 3d b0 20 b9 bb 27 ed ac 3d d2 cb 40 3d
       0.04689143 -0.0056496486 0.08443671 0.04706938
000030 20 75 07 3d a6 a4 74 3d 7a 01 0a 3d c3 21 ad bd
       0.033070683 0.059727333 0.033692814 -0.08453705
000040 8a a6 4a 3d 30 90 5c 3c 0d 33 64 bd 55 c3 86 3d
       0.04947523 0.013462111 -0.05571275 0.065802254
000050 8e 00 8e bd 80 d8 d0 bc fa 80 56 3d 60 f2 70 bb
       -0.069336995 -0.02549386 0.052369095 -0.003676556
000060 21 f6 a3 bd 66 4b 6d bd da 96 47 bd 96 db 46 3d
       -0.0800593 -0.057933234 -0.048727848 0.048549257
000070 df d8 90 3d 43 3e 95 3d 49 3a 83 3d 44 9b f2 bc
       0.07072615 0.07287266 0.064076014 -0.029615052
000080 12 f8 74 bd 90 3e dd 3b 2e 72 b4 bd b0 12 3a bd
       -0.05980689 0.006751843 -0.088108405 -0.045427978
000090 a8 1d 2e bd fe 53 25 3d 4a 9b 37 3d 0c 5e 88 bd
       -0.04250875 0.040363304 0.04482583 -0.06658563
0000a0 4e de 59 bd 00 e5 e5 3c 0b 25 a6 bd 82 de 3e 3d
       -0.053190522 0.028063297 -0.08112534 0.04659892
0000b0 df 18 81 bd 59 46 95 bd ac c1 ff 3c 88 2a 73 bd
       -0.06303572 -0.072888084 0.03122028 -0.059366733
0000c0 20 46 f7 bb e0 60 15 bd b4 e8 70 bd a5 08 95 3d
       -0.0075462013 -0.03646934 -0.058815673 0.072770394
0000d0 50 57 47 3c 0c 99 89 3c 10 c6 5c bd 40 0c 4d 3c
       0.012166813 0.016796611 -0.053899825 0.012515128
0000e0 3a cd 6a 3d 2b ae 6e bd e1 55 82 3d 75 55 9d 3d
       0.057324626 -0.05827157 0.06364036 0.07682315
0000f0 b4 60 af bc bc 0a c8 3c ec df 0d 3d 90 6d ce bc
       -0.021408416 0.024419181 0.034637377 -0.025198728
000100 ba ea f2 bc 40 d4 78 bb b8 51 11 bc db 55 44 bd
       -0.029652942 -0.0037968308 -0.008869581 -0.04793344
000110 47 30 a2 3d 64 6e dc 3c 96 01 28 3d 5e 29 02 3d
       0.079193644 0.026908107 0.041017137 0.031777732
000120 8f 35 9b 3d ae 6f 75 3d 76 28 0c 3d 07 36 91 3d
       0.07578575 0.05992096 0.034218274 0.07090383
000130 68 cc b7 3c 90 4d 15 bc 28 3f 89 bd 78 52 54 bd
       0.022436336 -0.009112731 -0.06701499 -0.05183646
000140 16 c8 3b 3d 65 c9 b4 3d 9f 46 81 3d 53 10 86 3d
       0.045845114 0.088274755 0.06312298 0.06546082
000150 a2 fa 39 3d 4d 04 99 bd 40 c4 08 3b 14 3f 41 bd
       0.045405038 -0.074715234 0.0020868927 -0.047179297
000160 b9 a9 8f 3d 6c c5 f2 3c 2c 68 06 3d c0 56 7f 3c
       0.07014794 0.029635154 0.03281419 0.015584648
000170 eb e1 8b 3d d0 f0 23 3c 5f 94 9a 3d 40 f0 91 bb
       0.068302 0.010006145 0.07547831 -0.004453689
000180 00 10 06 ba a0 cd f7 3c 31 20 b2 3d 10 7f 1b 3c
       -0.00051140785 0.030249417 0.08697546 0.009490743
000190 00 8d df 3b 90 1a e4 3c 0c 58 cb 3c 80 2d ec 3b
       0.0068222284 0.027844697 0.024822257 0.0072075725
0001a0 f0 7a 06 3d 24 e0 c7 3c eb 1b a1 bd f0 f0 0a bc
       0.032832086 0.02439887 -0.07866653 -0.008480296
0001b0 40 f9 6f bd 10 3c 4e bd a6 a8 49 3d 82 ba 6e 3d
       -0.058587313 -0.05035025 0.0492331 0.058283336
0001c0 e8 b5 2b 3c 0e d4 65 3d e2 54 3f 3d 0a a8 90 bd
       0.010480382 0.056110434 0.04671181 -0.07063301
0001d0 c6 85 6d 3d b2 16 60 3d 60 85 30 bb 51 81 49 bd
       0.057988904 0.054709144 -0.0026934966 -0.04919559
0001e0 7b 2a 9e 3d 38 fa 1f 3c e8 26 7b bc 67 1d 8b 3d
       0.07722946 0.009764247 -0.0153291 0.067927174
0001f0 4d da 98 3d 86 4f ed bc 78 22 93 bc 31 8d 87 3d
       0.074635126 -0.028968584 -0.017960772 0.06618727
000200 22 db 03 3d 0e 99 3c 3d 15 f9 85 3d 9f 36 91 3d
       0.032191403 0.0460444 0.06541649 0.07090496
000210 c0 5e d3 bc e0 ad d5 bb 35 b0 8e bd 3c 75 88 bd
       -0.025802016 -0.0065209717 -0.069672026 -0.06662986
000220 88 8e af bc 97 5e 83 3d a0 ad a4 3b a4 12 9a 3c
       -0.021430269 0.06414526 0.0050255805 0.018807717
000230 e2 be 60 3d bb 0c 84 3d 94 db a9 3c 69 e1 b3 3d
       0.05486954 0.06447741 0.020734586 0.08783228
000240 db ff 94 3d a5 41 ad 3d 78 12 3a bc 76 c5 d6 bc
       0.07275363 0.08459786 -0.011356942 -0.026217204
000250 b0 90 a1 bc 56 38 45 3d 93 2c a4 bd 6b 7e a5 3d
       -0.019722313 0.04814943 -0.08016314 0.08080753
000260 77 d1 3c bd dc df ca 3c 10 f1 08 bd a3 26 9c 3d
       -0.0460982 0.024764948 -0.03343302 0.07624557
000270 c0 68 11 bb a5 a9 a3 bd 40 b6 5c 3b f7 7f aa 3d
       -0.002218768 -0.079913415 0.0033677965 0.083251886
000280 1c db 88 bc 40 ff c0 3a 20 f6 fe 3c 63 4b 7c bd
       -0.016706042 0.0014724508 0.03112322 -0.061595332
000290 06 68 72 bd ae 5e 44 3d a0 c8 b8 bc ce 47 23 3d
       -0.059181236 0.047941856 -0.022556603 0.0398634
0002a0 08 1b 53 bd 44 f8 a3 bc 62 39 7c 3d 7e e4 a9 bd
       -0.05153945 -0.020015843 0.061578162 -0.082955346
0002b0 7c bf 98 bd cd 40 ab 3d 11 04 ad 3d c2 43 3d 3d
       -0.07458398 0.08361969 0.08448041 0.046207197
0002c0 fc a9 b1 bc a0 aa 05 bc 88 ee c4 3c 78 7f a7 3c
       -0.0216875 -0.008158356 0.024039522 0.020446524
0002d0 e0 22 53 3c c0 7b 26 bb 0a e2 3e 3d 0e 8e 7b 3d
       0.012886733 -0.002540335 0.046602286 0.06141477
0002e0 8b 39 9c bd 20 58 f0 bb 00 38 0b bc f8 f1 f6 3c
       -0.07628163 -0.007334724 -0.008497238 0.030144677
0002f0 27 0e 88 bd 1c 38 fb bc 0f 8a 8f bd 38 73 13 bc
       -0.06643324 -0.030666403 -0.070087545 -0.008999638
000300 24 6c 8c 3c a2 bf 3c 3d a0 71 0f 3b a9 4b 81 3d
       0.01714141 0.046081193 0.0021887794 0.06313259
000310 d0 ab 2d bd 5e ac 6c 3d 04 57 aa 3c 36 93 3d bd
       -0.04240018 0.05778157 0.020793445 -0.04628297
000320 ee 3a 48 3d 7e 7c 11 3d a0 f3 61 bb fd 6f 33 bd
       0.048884325 0.035519116 -0.0034477487 -0.043807972
000330 14 4d cc 3c fb b7 91 bd e0 7a a8 3b b0 7b e9 3c
       0.024939097 -0.071151696 0.005141601 0.028501362
000340 68 88 32 bc 74 4a 8a bd 88 2a a6 bd 94 9f 04 3d
       -0.01089678 -0.06752482 -0.08113581 0.032378748
000350 69 3a 10 bd 55 ef 4a bd d2 47 61 3d 03 be 22 bd
       -0.035211954 -0.04954465 0.055000134 -0.03973199
000360 9e b4 56 3d 41 33 8b bd fc 92 d3 bc f8 40 ea 3c
       0.052418344 -0.06796885 -0.025826924 0.028595433
000370 4e de a8 bd d0 c6 dd 3c 16 27 94 bd f6 6a 24 bd
       -0.08245526 0.02707234 -0.072340176 -0.04014107
000380 c6 df 4e 3d a4 b5 4e bd 9b 2a 39 bd 78 16 a6 3c
       0.050506376 -0.050466195 -0.045206647 0.020274386
000390 3e cd 38 bd b0 fb 90 bc dc 7d 0c 3d 4e 68 6f 3d
       -0.04511761 -0.017698139 0.034299716 0.058449082
0003a0 60 6c 20 3b 01 f9 9e 3d 52 80 86 bd 94 99 87 bc
       0.002447866 0.077623375 -0.06567444 -0.016552724
0003b0 7d bd a3 bd 93 3e 27 bd 00 9b 24 bc 0e 40 8d bd
       -0.079951264 -0.04083116 -0.0100467205 -0.06896983
0003c0 be 40 94 bd 6c 92 8d 3c 0c a9 af 3c 50 5e 58 bd
       -0.07238911 0.017281733 0.021442913 -0.05282432
0003d0 2e a2 18 3d 18 ee 92 bd f2 94 7a bd 18 9b 88 bc
       0.03726404 -0.07174319 -0.0611772 -0.016675517
0003e0 e4 0f fc bc 6e 0b e7 bc 7f 71 b2 bd fc ce 61 bd
       -0.030769296 -0.028203692 -0.08713054 -0.055129036
0003f0 10 9f 0a 3d df f5 a2 3d 1b c4 81 3d 1d 71 a6 3d
       0.0338431 0.079570524 0.06336232 0.081270434
